…
2023-05-22 11:15:44,680:INFO:{'method': 'random', 'metric': {'goal': 'minimize', 'name': 'val_loss'}, 'parameters': {'batch_size': {'distribution': 'q_log_uniform_values', 'max': 256, 'min': 16, 'q': 8}, 'criterion': {'value': 'MSELoss()'}, 'epochs': {'value': 1}, 'hidden_dim_1': {'value': 64}, 'hidden_dim_2': {'value': 128}, 'hidden_dim_3': {'value': 32}, 'in_channels': {'value': 11}, 'lr': {'distribution': 'uniform', 'max': 0.1, 'min': 0}, 'nnconv_aggr': {'value': 'max'}, 'optimizer': {'value': 'adam'}, 'out_channels': {'value': 1}}}
2023-05-22 11:15:45,484:INFO:GNNModel(
  (conv1): NNConv(11, 64, aggr=max, nn=Sequential(
    (0): Linear(in_features=5, out_features=128, bias=True)
    (1): ReLU()
    (2): Linear(in_features=128, out_features=704, bias=True)
  ))
  (global_pool): MaxAggregation()
  (fc1): Linear(in_features=64, out_features=32, bias=True)
  (fc2): Linear(in_features=32, out_features=1, bias=True)
)
2023-05-22 11:16:10,838:INFO:{'method': 'random', 'metric': {'goal': 'minimize', 'name': 'val_loss'}, 'parameters': {'batch_size': {'distribution': 'q_log_uniform_values', 'max': 256, 'min': 16, 'q': 8}, 'criterion': {'value': 'MSELoss()'}, 'epochs': {'value': 1}, 'hidden_dim_1': {'value': 64}, 'hidden_dim_2': {'value': 128}, 'hidden_dim_3': {'value': 32}, 'in_channels': {'value': 11}, 'lr': {'distribution': 'uniform', 'max': 0.1, 'min': 0}, 'nnconv_aggr': {'value': 'max'}, 'optimizer': {'value': 'adam'}, 'out_channels': {'value': 1}}}
2023-05-22 11:16:11,590:INFO:GNNModel(
  (conv1): NNConv(11, 64, aggr=max, nn=Sequential(
    (0): Linear(in_features=5, out_features=128, bias=True)
    (1): ReLU()
    (2): Linear(in_features=128, out_features=704, bias=True)
  ))
  (global_pool): MaxAggregation()
  (fc1): Linear(in_features=64, out_features=32, bias=True)
  (fc2): Linear(in_features=32, out_features=1, bias=True)
)
2023-05-22 11:20:47,326:INFO:{'method': 'random', 'metric': {'goal': 'minimize', 'name': 'val_loss'}, 'parameters': {'batch_size': {'distribution': 'q_log_uniform_values', 'max': 256, 'min': 16, 'q': 8}, 'criterion': {'value': 'MSELoss()'}, 'epochs': {'value': 1}, 'hidden_dim_1': {'value': 64}, 'hidden_dim_2': {'value': 128}, 'hidden_dim_3': {'value': 32}, 'in_channels': {'value': 11}, 'lr': {'distribution': 'uniform', 'max': 0.1, 'min': 0}, 'nnconv_aggr': {'value': 'max'}, 'optimizer': {'value': 'adam'}, 'out_channels': {'value': 1}}}
2023-05-22 11:20:47,993:INFO:GNNModel(
  (conv1): NNConv(11, 64, aggr=max, nn=Sequential(
    (0): Linear(in_features=5, out_features=128, bias=True)
    (1): ReLU()
    (2): Linear(in_features=128, out_features=704, bias=True)
  ))
  (global_pool): MaxAggregation()
  (fc1): Linear(in_features=64, out_features=32, bias=True)
  (fc2): Linear(in_features=32, out_features=1, bias=True)
)
2023-05-22 11:21:09,480:INFO:{'method': 'random', 'metric': {'goal': 'minimize', 'name': 'val_loss'}, 'parameters': {'batch_size': {'distribution': 'q_log_uniform_values', 'max': 256, 'min': 16, 'q': 8}, 'criterion': {'value': 'MSELoss()'}, 'epochs': {'value': 1}, 'hidden_dim_1': {'value': 64}, 'hidden_dim_2': {'value': 128}, 'hidden_dim_3': {'value': 32}, 'in_channels': {'value': 11}, 'lr': {'distribution': 'uniform', 'max': 0.1, 'min': 0}, 'nnconv_aggr': {'value': 'max'}, 'optimizer': {'value': 'adam'}, 'out_channels': {'value': 1}}}
2023-05-22 11:21:10,129:INFO:GNNModel(
  (conv1): NNConv(11, 64, aggr=max, nn=Sequential(
    (0): Linear(in_features=5, out_features=128, bias=True)
    (1): ReLU()
    (2): Linear(in_features=128, out_features=704, bias=True)
  ))
  (global_pool): MaxAggregation()
  (fc1): Linear(in_features=64, out_features=32, bias=True)
  (fc2): Linear(in_features=32, out_features=1, bias=True)
)
2023-05-22 11:22:07,892:INFO:{'method': 'random', 'metric': {'goal': 'minimize', 'name': 'val_loss'}, 'parameters': {'batch_size': {'distribution': 'q_log_uniform_values', 'max': 256, 'min': 16, 'q': 8}, 'criterion': {'value': 'MSELoss()'}, 'epochs': {'value': 1}, 'hidden_dim_1': {'value': 64}, 'hidden_dim_2': {'value': 128}, 'hidden_dim_3': {'value': 32}, 'in_channels': {'value': 11}, 'lr': {'distribution': 'uniform', 'max': 0.1, 'min': 0}, 'nnconv_aggr': {'value': 'max'}, 'optimizer': {'value': 'adam'}, 'out_channels': {'value': 1}}}
2023-05-22 11:22:08,873:INFO:GNNModel(
  (conv1): NNConv(11, 64, aggr=max, nn=Sequential(
    (0): Linear(in_features=5, out_features=128, bias=True)
    (1): ReLU()
    (2): Linear(in_features=128, out_features=704, bias=True)
  ))
  (global_pool): MaxAggregation()
  (fc1): Linear(in_features=64, out_features=32, bias=True)
  (fc2): Linear(in_features=32, out_features=1, bias=True)
)
2023-05-22 11:23:50,718:INFO:Epoch: 1, Training Loss: 1.6242
2023-05-22 11:23:55,412:INFO:Epoch: 1, Validation Loss: 1.4048
2023-05-22 11:24:18,476:INFO:{'method': 'random', 'metric': {'goal': 'minimize', 'name': 'val_loss'}, 'parameters': {'batch_size': {'distribution': 'q_log_uniform_values', 'max': 256, 'min': 16, 'q': 8}, 'criterion': {'value': 'MSELoss()'}, 'epochs': {'value': 1}, 'hidden_dim_1': {'value': 64}, 'hidden_dim_2': {'value': 128}, 'hidden_dim_3': {'value': 32}, 'in_channels': {'value': 11}, 'lr': {'distribution': 'uniform', 'max': 0.1, 'min': 0}, 'nnconv_aggr': {'value': 'max'}, 'optimizer': {'value': 'adam'}, 'out_channels': {'value': 1}}}
2023-05-22 11:24:19,363:INFO:GNNModel(
  (conv1): NNConv(11, 64, aggr=max, nn=Sequential(
    (0): Linear(in_features=5, out_features=128, bias=True)
    (1): ReLU()
    (2): Linear(in_features=128, out_features=704, bias=True)
  ))
  (global_pool): MaxAggregation()
  (fc1): Linear(in_features=64, out_features=32, bias=True)
  (fc2): Linear(in_features=32, out_features=1, bias=True)
)
2023-05-22 11:25:18,087:INFO:Epoch: 1, Training Loss: 1.7843
2023-05-22 11:25:21,253:INFO:Epoch: 1, Validation Loss: 1.3336
2023-05-22 11:25:39,738:INFO:{'method': 'random', 'metric': {'goal': 'minimize', 'name': 'val_loss'}, 'parameters': {'batch_size': {'distribution': 'q_log_uniform_values', 'max': 256, 'min': 16, 'q': 8}, 'criterion': {'value': 'MSELoss()'}, 'epochs': {'value': 1}, 'hidden_dim_1': {'value': 64}, 'hidden_dim_2': {'value': 128}, 'hidden_dim_3': {'value': 32}, 'in_channels': {'value': 11}, 'lr': {'distribution': 'uniform', 'max': 0.1, 'min': 0}, 'nnconv_aggr': {'value': 'max'}, 'optimizer': {'value': 'adam'}, 'out_channels': {'value': 1}}}
2023-05-22 11:25:40,343:INFO:GNNModel(
  (conv1): NNConv(11, 64, aggr=max, nn=Sequential(
    (0): Linear(in_features=5, out_features=128, bias=True)
    (1): ReLU()
    (2): Linear(in_features=128, out_features=704, bias=True)
  ))
  (global_pool): MaxAggregation()
  (fc1): Linear(in_features=64, out_features=32, bias=True)
  (fc2): Linear(in_features=32, out_features=1, bias=True)
)
2023-05-22 11:26:40,729:INFO:Epoch: 1, Training Loss: 1.4902
2023-05-22 11:26:44,266:INFO:Epoch: 1, Validation Loss: 1.2871
2023-05-22 11:27:05,042:INFO:{'method': 'random', 'metric': {'goal': 'minimize', 'name': 'val_loss'}, 'parameters': {'batch_size': {'distribution': 'q_log_uniform_values', 'max': 256, 'min': 16, 'q': 8}, 'criterion': {'value': 'MSELoss()'}, 'epochs': {'value': 1}, 'hidden_dim_1': {'value': 64}, 'hidden_dim_2': {'value': 128}, 'hidden_dim_3': {'value': 32}, 'in_channels': {'value': 11}, 'lr': {'distribution': 'uniform', 'max': 0.1, 'min': 0}, 'nnconv_aggr': {'value': 'max'}, 'optimizer': {'value': 'adam'}, 'out_channels': {'value': 1}}}
2023-05-22 11:27:05,677:INFO:GNNModel(
  (conv1): NNConv(11, 64, aggr=max, nn=Sequential(
    (0): Linear(in_features=5, out_features=128, bias=True)
    (1): ReLU()
    (2): Linear(in_features=128, out_features=704, bias=True)
  ))
  (global_pool): MaxAggregation()
  (fc1): Linear(in_features=64, out_features=32, bias=True)
  (fc2): Linear(in_features=32, out_features=1, bias=True)
)
2023-05-22 11:28:40,131:INFO:Epoch: 1, Training Loss: 4.7534
2023-05-22 11:28:45,186:INFO:Epoch: 1, Validation Loss: 1.9207
2023-05-22 11:30:13,119:INFO:{'method': 'random', 'metric': {'goal': 'minimize', 'name': 'val_loss'}, 'parameters': {'batch_size': {'distribution': 'q_log_uniform_values', 'max': 256, 'min': 16, 'q': 8}, 'criterion': {'value': 'MSELoss()'}, 'epochs': {'value': 10}, 'hidden_dim_1': {'value': 64}, 'hidden_dim_2': {'value': 128}, 'hidden_dim_3': {'value': 32}, 'in_channels': {'value': 11}, 'lr': {'distribution': 'uniform', 'max': 0.1, 'min': 0}, 'nnconv_aggr': {'value': 'max'}, 'optimizer': {'value': 'adam'}, 'out_channels': {'value': 1}}}
2023-05-22 11:30:13,670:INFO:GNNModel(
  (conv1): NNConv(11, 64, aggr=max, nn=Sequential(
    (0): Linear(in_features=5, out_features=128, bias=True)
    (1): ReLU()
    (2): Linear(in_features=128, out_features=704, bias=True)
  ))
  (global_pool): MaxAggregation()
  (fc1): Linear(in_features=64, out_features=32, bias=True)
  (fc2): Linear(in_features=32, out_features=1, bias=True)
)
2023-05-22 11:31:34,535:INFO:Epoch: 10, Training Loss: 1.4690
2023-05-22 11:31:39,008:INFO:Epoch: 10, Validation Loss: 1.3798
2023-05-22 11:33:12,153:INFO:{'method': 'random', 'metric': {'goal': 'minimize', 'name': 'val_loss'}, 'parameters': {'batch_size': {'distribution': 'q_log_uniform_values', 'max': 256, 'min': 16, 'q': 8}, 'criterion': {'value': 'MSELoss()'}, 'epochs': {'value': 10}, 'hidden_dim_1': {'value': 64}, 'hidden_dim_2': {'value': 128}, 'hidden_dim_3': {'value': 32}, 'in_channels': {'value': 11}, 'lr': {'distribution': 'uniform', 'max': 0.1, 'min': 0}, 'nnconv_aggr': {'value': 'max'}, 'optimizer': {'value': 'adam'}, 'out_channels': {'value': 1}}}
2023-05-22 11:33:13,034:INFO:GNNModel(
  (conv1): NNConv(11, 64, aggr=max, nn=Sequential(
    (0): Linear(in_features=5, out_features=128, bias=True)
    (1): ReLU()
    (2): Linear(in_features=128, out_features=704, bias=True)
  ))
  (global_pool): MaxAggregation()
  (fc1): Linear(in_features=64, out_features=32, bias=True)
  (fc2): Linear(in_features=32, out_features=1, bias=True)
)
2023-05-22 11:34:33,086:INFO:Epoch: 0, Training Loss: 36.4952
2023-05-22 11:34:37,290:INFO:Epoch: 0, Validation Loss: 1.8477
2023-05-22 11:35:50,188:INFO:Epoch: 1, Training Loss: 1.7460
2023-05-22 11:35:52,934:INFO:Epoch: 1, Validation Loss: 1.8113
2023-05-22 11:36:48,090:INFO:Epoch: 2, Training Loss: 1.7304
2023-05-22 11:36:50,803:INFO:Epoch: 2, Validation Loss: 1.6807
…
2023-05-22 13:21:31,195:INFO:{'method': 'random', 'metric': {'goal': 'minimize', 'name': 'val_loss'}, 'parameters': {'batch_size': {'distribution': 'q_log_uniform_values', 'max': 256, 'min': 16, 'q': 8}, 'criterion': {'value': 'MSELoss()'}, 'epochs': {'values': [20, 40, 60, 80]}, 'hidden_dim_1': {'value': 64}, 'hidden_dim_2': {'value': 128}, 'hidden_dim_3': {'value': 32}, 'in_channels': {'value': 11}, 'lr': {'distribution': 'uniform', 'max': 0.1, 'min': 0}, 'nnconv_aggr': {'values': ['max', 'mean']}, 'optimizer': {'value': 'adam'}, 'out_channels': {'value': 1}}}
2023-05-22 13:21:31,727:INFO:GNNModel(
  (conv1): NNConv(11, 64, aggr=max, nn=Sequential(
    (0): Linear(in_features=5, out_features=128, bias=True)
    (1): ReLU()
    (2): Linear(in_features=128, out_features=704, bias=True)
  ))
  (global_pool): MaxAggregation()
  (fc1): Linear(in_features=64, out_features=32, bias=True)
  (fc2): Linear(in_features=32, out_features=1, bias=True)
)
2023-05-22 13:22:37,876:INFO:{'method': 'random', 'metric': {'goal': 'minimize', 'name': 'val_loss'}, 'parameters': {'batch_size': {'distribution': 'q_log_uniform_values', 'max': 256, 'min': 16, 'q': 8}, 'criterion': {'value': 'MSELoss()'}, 'epochs': {'values': [20, 40, 60, 80]}, 'hidden_dim_1': {'value': 64}, 'hidden_dim_2': {'value': 128}, 'hidden_dim_3': {'value': 32}, 'in_channels': {'value': 11}, 'lr': {'distribution': 'uniform', 'max': 0.1, 'min': 0}, 'nnconv_aggr': {'values': ['max', 'mean', 'add']}, 'optimizer': {'value': 'adam'}, 'out_channels': {'value': 1}}}
2023-05-22 13:22:39,158:INFO:GNNModel(
  (conv1): NNConv(11, 64, aggr=max, nn=Sequential(
    (0): Linear(in_features=5, out_features=128, bias=True)
    (1): ReLU()
    (2): Linear(in_features=128, out_features=704, bias=True)
  ))
  (global_pool): MaxAggregation()
  (fc1): Linear(in_features=64, out_features=32, bias=True)
  (fc2): Linear(in_features=32, out_features=1, bias=True)
)
2023-05-22 13:22:45,812:INFO:Epoch: 0, Training Loss: 31.0896
2023-05-22 13:22:55,727:INFO:Epoch: 0, Validation Loss: 1.3463
2023-05-22 13:24:29,164:INFO:Epoch: 1, Training Loss: 1.3378
2023-05-22 13:24:35,090:INFO:Epoch: 1, Validation Loss: 1.2909
2023-05-22 13:25:57,607:INFO:Epoch: 0, Training Loss: 32.6343
2023-05-22 13:26:07,361:INFO:Epoch: 0, Validation Loss: 1.7628
…
