2023-05-18 14:50:15,795:INFO:{'in_channels': 11, 'out_channels': 1, 'hidden_dim_1': 64, 'hidden_dim_2': 128, 'hidden_dim_3': 32, 'lr': 0.001, 'batch_size': 50, 'num_epochs': 100, 'criterion': MSELoss(), 'nnconv_aggr': 'mean'}
2023-05-18 14:51:18,261:INFO:GNNModel(
  (conv1): NNConv(11, 64, aggr=mean, nn=Sequential(
    (0): Linear(in_features=5, out_features=128, bias=True)
    (1): ReLU()
    (2): Linear(in_features=128, out_features=704, bias=True)
  ))
  (global_pool): MaxAggregation()
  (fc1): Linear(in_features=64, out_features=32, bias=True)
  (fc2): Linear(in_features=32, out_features=1, bias=True)
)
2023-05-18 14:52:08,961:INFO:Test Loss before training: 8.4049
2023-05-18 14:53:26,415:INFO:Epoch: 0, Training Loss: 1.2619
2023-05-18 14:53:31,406:INFO:Epoch: 0, Validation Loss: 1.1729
2023-05-18 14:57:01,845:INFO:Test Loss before training: 1.0862
2023-05-18 14:57:11,415:INFO:GNNModel(
  (conv1): NNConv(11, 64, aggr=mean, nn=Sequential(
    (0): Linear(in_features=5, out_features=128, bias=True)
    (1): ReLU()
    (2): Linear(in_features=128, out_features=704, bias=True)
  ))
  (global_pool): MaxAggregation()
  (fc1): Linear(in_features=64, out_features=32, bias=True)
  (fc2): Linear(in_features=32, out_features=1, bias=True)
)
2023-05-18 14:57:16,082:INFO:Test Loss before training: 10.3484
2023-05-18 14:58:12,523:INFO:Epoch: 0, Training Loss: 1.2587
2023-05-18 14:58:15,526:INFO:Epoch: 0, Validation Loss: 1.2172
2023-05-18 14:59:14,311:INFO:GNNModel(
  (conv1): NNConv(11, 64, aggr=mean, nn=Sequential(
    (0): Linear(in_features=5, out_features=128, bias=True)
    (1): ReLU()
    (2): Linear(in_features=128, out_features=704, bias=True)
  ))
  (global_pool): MaxAggregation()
  (fc1): Linear(in_features=64, out_features=32, bias=True)
  (fc2): Linear(in_features=32, out_features=1, bias=True)
)
2023-05-18 14:59:16,922:INFO:Test Loss before training: 9.4620
2023-05-18 15:00:09,405:INFO:Epoch: 0, Training Loss: 1.2668
2023-05-18 15:00:12,091:INFO:Epoch: 0, Validation Loss: 1.1783
2023-05-18 15:01:04,639:INFO:Epoch: 1, Training Loss: 1.1510
2023-05-18 15:01:07,319:INFO:Epoch: 1, Validation Loss: 1.1978
2023-05-18 15:02:04,931:INFO:Epoch: 2, Training Loss: 1.0731
…
